MNIST_Handwritten_Digits-PyTorch/mnist_model.pth (torch, 439447 bytes, 6 tensors)

fc1.weight f4 [128, 784]
000000 e9 34 16 3d a5 91 80 3b d6 2c a3 3c c2 fa 0a 3c
       0.036671553 0.003923612 0.01991884 0.008482637
000010 25 e3 09 3c 1c d4 05 bc 33 de 1a bc 78 3f 5a 3b
       0.008415972 -0.008168247 -0.0094523905 0.003330199
000020 ce 40 39 bb f7 54 1f 3d d8 66 a3 3c 77 fd 2b bc
       -0.0028267386 0.03889939 0.0199465 -0.010497442
000030 7f a9 8d 3c da 3e 1f bc 1a cc e9 bb 1e c5 37 3b
       0.017292736 -0.009719575 -0.0071349265 0.0028041075
000040 52 06 27 3d cf 37 84 bb 0b e5 81 3b 89 3e c9 bc
       0.040777512 -0.004034973 0.0039640716 -0.024565952
000050 21 fa b9 3c cd ba 8d 3c e6 e6 8a 3c 64 27 1d 3d
       0.022702279 0.017300988 0.016955804 0.038367644
000060 9a 69 81 3a a2 c6 20 3b 62 43 ff 3a df 16 d1 3c
       0.0009873391 0.0024532457 0.0019475038 0.025523601
000070 64 55 15 3c 02 48 ae 39 e7 50 5e 3b 91 8d 6c 3c
       0.009114597 0.00033241516 0.0033922733 0.014438049
000080 15 fe 09 3d 25 e5 45 bc 17 0e d6 3c bd 67 b6 3c
       0.033689577 -0.012078558 0.026129765 0.022266263
000090 af 3e f3 3c 31 04 f3 3c c5 79 a4 3c af 1f 02 bd
       0.029692976 0.029665085 0.020077595 -0.031768497
0000a0 04 14 14 bd 60 2b b7 bc 58 60 b8 3b 81 30 3d 3d
       -0.0361519 -0.02235955 0.0056267194 0.046188835
0000b0 e9 95 f4 3c 2c 47 8a bc c1 b9 85 bc de cd ab 3b
       0.029856639 -0.01687964 -0.016323926 0.005243047
0000c0 38 21 1f 3c 59 df 8a bb 10 76 df bc 76 8f e8 bb
       0.00971251 -0.004238051 -0.027277976 -0.00709718
0000d0 1c 89 cb 3b 8f 21 81 3b 27 16 f4 3b 93 58 86 bc
       0.006211413 0.003940768 0.00744893 -0.016399657
0000e0 b3 52 19 bc 4f 49 8e bc 43 54 d5 3b c1 09 74 3b
       -0.009358096 -0.01736894 0.006510289 0.003723726
0000f0 8a 3e c5 3b cb 78 52 bc 65 ee 03 3c 22 ee a0 3c
       0.006019418 -0.012846182 0.008052443 0.0196448
000100 0a be 9d bc d9 d3 26 bc 89 71 c1 3c 25 4d 2d 3a
       -0.019255657 -0.010182344 0.023613708 0.00066109217
000110 be 77 90 bc 1d 60 3d bd da f0 dc bc 67 19 8d 3c
       -0.017635223 -0.04623424 -0.026970316 0.017224027
000120 d1 06 27 3c ec dd 30 bc 70 8a 93 3a 01 d7 12 bd
       0.010194496 -0.010795098 0.0011256468 -0.035849575
000130 fd 7d 81 bb bb dc e4 bc f9 23 7a bc 60 e8 f8 3a
       -0.0039517866 -0.027937284 -0.015267366 0.0018990152
000140 59 90 9d ba a7 5c 9d bc 71 67 90 3c c7 60 75 3b
       -0.0012021168 -0.01920922 0.01762745 0.0037441717
000150 c3 9e e7 3c 14 99 b6 bc 77 73 95 3b 8b fc 40 bc
       0.028273946 -0.02228979 0.0045608836 -0.011778961
000160 ee 24 b7 bc bc ed 5e 3c 4d a3 38 bc 85 ca b1 3b
       -0.022356477 0.013606485 -0.011269403 0.0054257535
000170 61 47 06 3b ff 53 16 3c c6 02 bf bc 6a 74 8b bd
       0.0020489322 0.0091753 -0.023316752 -0.068093136
000180 6e 79 95 bd 26 14 3d bd b6 fe 81 bd a5 08 89 bc
       -0.072985515 -0.046161793 -0.063474104 -0.016727755
000190 43 8f 91 bc 0d 17 6c bc a3 a8 71 bc 63 65 d8 3c
       -0.017768508 -0.014409793 -0.014749679 0.026415532
0001a0 da dc 85 bc 62 0e e8 bb 23 f4 3c 3c 0d 62 01 3b
       -0.016340662 -0.0070817927 0.011532816 0.001974228
0001b0 17 8d 9f bc 2f 02 a3 bc 49 dd 1c 3d 9e 25 9b 3c
       -0.019476457 -0.019898502 0.03829697 0.018938836
0001c0 5d fd 51 bc 19 be b1 bb d4 99 cd 3c b4 e6 9b 3c
       -0.012816754 -0.0054242727 0.025097765 0.019030906
0001d0 84 5c 2f 3c be 0b 3a 3d b2 39 97 bc 73 d6 f4 bc
       0.01070321 0.045421354 -0.018460128 -0.029887414
0001e0 2a 67 23 bd b4 6d 46 bd 59 7d 04 bd 24 c2 2e 3d
       -0.039893307 -0.048444465 -0.032346103 0.042665616
0001f0 b0 cf 22 bc ba 84 55 3d 32 9c ed 3c 8a dc 49 bb
       -0.009937212 0.05212853 0.029005144 -0.0030801618
000200 d4 34 85 bd 6b f2 bc bd af c6 71 bd 1e 37 03 bd
       -0.06504217 -0.09225925 -0.05902737 -0.032034986
000210 2a 4d bc bd 28 e2 97 bd 6f af 10 3c d2 0c 19 3d
       -0.091944054 -0.07416183 0.008830889 0.037365742
000220 1b dc 64 bc f5 e9 e8 3b 55 6e 89 bb 31 a9 22 3c
       -0.013968493 0.007107968 -0.004194061 0.009928034
000230 5c 4f 24 bc 0d 37 5b bc 4b fa 63 3c 32 d6 a9 bc
       -0.010028686 -0.013379824 0.013914655 -0.02073202
000240 ff 37 c2 3c 73 c1 52 3d 8f aa d6 ba f0 19 49 3b
       0.023708342 0.05145402 -0.0016377735 0.0030685626
000250 b3 f9 4d bd e9 1d 1f be f1 c0 06 be 63 a0 06 bd
       -0.05028696 -0.15538754 -0.13159539 -0.0328678
000260 8e 53 8a bd df 09 8a bd 6a 65 62 bd d3 f4 9c 3c
       -0.06754218 -0.06740164 -0.055272497 0.01915971
000270 6c eb 49 3c 33 91 64 bd ec 4d 9a bd 3a 28 9c bd
       0.012324195 -0.055802535 -0.07534394 -0.0762486
000280 06 eb 41 bd 0a ea 22 bd 13 e8 46 3c b6 5c c7 bb
       -0.047343276 -0.03977398 0.012140292 -0.00608405
000290 ca 1b 08 3d 26 cc 61 bc ea fa 66 bc d1 9a 96 3b
       0.033229627 -0.013781583 -0.0140979085 0.0045960923
0002a0 e0 7f c0 ba ac 7d 1f 3c f8 2e 19 3d e2 b4 cf 3b
       -0.0014686547 0.009734552 0.03739831 0.0063387016
0002b0 34 44 a9 bc 8a be 17 bc 7a 10 58 bc 80 ff 6c bd
       -0.020662405 -0.009261737 -0.013187522 -0.05786085
0002c0 cd 9b 5d bd 79 c9 05 be 52 f6 b3 3c 64 e7 e3 3d
       -0.05410366 -0.13065137 0.02196804 0.11128119
0002d0 ba 92 a1 3d 6f b5 64 3e a3 11 7f 3e 48 ba 91 3e
       0.07889314 0.22334836 0.24909072 0.28462434
0002e0 49 13 57 3e ca 30 4d 3e b9 80 54 3d 6b 9c 02 be
       0.2100345 0.20038143 0.051880572 -0.12754981
0002f0 e8 b1 75 ba f2 38 f0 bc bd 73 62 bd 9a ab 24 3c
       -0.00093725184 -0.029324029 -0.055286158 0.010050679
000300 b2 25 c3 3c b7 94 3a 3d 13 9e fb bb 34 dd 0f 3c
       0.023821685 0.04555198 -0.007678756 0.008780766
000310 d8 9f 28 bc 68 03 12 bc a0 33 c3 bc 55 18 37 3d
       -0.010292016 -0.008911945 -0.023828328 0.04470094
000320 b8 21 16 bd dc 0c 41 bd 0a ab 31 bb 32 90 85 bd
       -0.03665325 -0.047131404 -0.0027110004 -0.06521644
000330 cf f3 fd bc a4 6b 09 3d e5 c4 36 3e c3 24 8a 3e
       -0.031000046 0.03354992 0.17848547 0.26981172
000340 9d f7 98 3e 39 67 d8 3e f9 7a fa 3e 40 06 be 3e
       0.29876414 0.42266253 0.48921946 0.37114143
000350 af 27 33 3e 27 15 01 3d 8e 82 77 bd 0b ea a7 bd
       0.17495607 0.031514313 -0.06042724 -0.08198937
000360 93 6b ae bc 5b 00 cf bc f6 f4 93 bd b6 6c dd bc
       -0.02129153 -0.025268724 -0.07224457 -0.027029376
000370 eb 68 a1 bc 3b 64 b2 bc 66 f8 0b bc 70 43 01 3d
       -0.01970335 -0.02177631 -0.0085431095 0.031558454
000380 05 30 27 bc 49 8f 1e 3d 69 8f cc 39 99 ec ee b9
       -0.01020432 0.038710866 0.0003901676 -0.00045571176
000390 a6 a9 44 ba 6b 50 89 bd 12 5b 4f bd a7 37 7a 3d
       -0.0007502086 -0.06704792 -0.05062396 0.06108823
0003a0 6a ca d3 3d f0 f2 e8 3d a9 43 65 3e f5 fa 66 3e
       0.10341342 0.11374462 0.22389092 0.2255667
0003b0 88 52 7b 3e 9f 98 56 3e 07 54 10 3e a4 56 a6 bb
       0.24543202 0.20956658 0.14094554 -0.0050762463
0003c0 6d 66 9f bd 2c de 76 bd 42 60 95 bd 8b cd fd bd
       -0.07783208 -0.060270473 -0.0729375 -0.1239272
0003d0 5f 39 11 be 35 93 25 be 60 81 c5 bd 7f 30 63 bd
       -0.14182042 -0.16169436 -0.09643817 -0.05546617
0003e0 09 aa e4 3b 00 61 d3 bb b6 9b a5 bc 23 60 28 3d
       0.0069782776 -0.0064507723 -0.02021585 0.041107308
0003f0 ec 7f 13 bc 1b 2e 23 bc d5 f3 a3 bc dd 9a 74 bc
       -0.009002667 -0.009959723 -0.02001373 -0.0149295

fc1.bias f4 [128]
000000 e8 7a 8c 3c d0 85 c1 3c 3b 32 bf bc 44 8e e0 bc
       0.01714845 0.023623377 -0.023339381 -0.027411588
000010 40 ff 67 bb 66 49 0c bd 14 b3 d0 bc b7 4a db 3c
       -0.0035399944 -0.034249686 -0.025476016 0.026769025
000020 20 f6 82 bd 47 d8 1a bd 43 28 89 bc 09 f8 f3 3c
       -0.06394601 -0.037803914 -0.016742831 0.029781358
000030 08 8a 96 3c c2 56 01 3a 92 2d d8 3c 11 ec bb bc
       0.018376365 0.00049338874 0.026388917 -0.022939714
000040 17 64 be 3c 97 34 15 bd 29 8e b6 3c 25 c7 4f bc
       0.023241086 -0.036427107 0.022284584 -0.012681757
000050 4a ef 44 3c 90 8b 07 bc db e9 f0 bc cf 33 c5 bc
       0.012019942 -0.00827302 -0.029408386 -0.024072556
000060 0d 16 3e 3b 2c 45 39 bd 87 f0 17 bd d9 e8 01 3d
       0.0029004843 -0.045231983 -0.03709462 0.0317162
000070 8c e3 6a bc d1 81 3a bc a2 96 e8 3c e0 fa e2 bb
       -0.014336478 -0.01138349 0.02839214 -0.0069268793
000080 ae 46 97 ba 38 56 34 3c 3d 01 02 3c 04 74 07 bd
       -0.001154145 0.011006884 0.007934866 -0.033069625
000090 c9 78 fc 3c 55 69 0c bc 9b aa 12 3c 18 09 65 3c
       0.030819314 -0.008570035 0.008951808 0.013979219
0000a0 0b 4e e5 bc 97 77 d0 bc 01 38 91 3b a7 83 9a 3c
       -0.027991315 -0.02544765 0.004431725 0.018861605
0000b0 75 ce 71 3a 86 a9 ae 3c 63 73 5e 3c 75 64 db bc
       0.0009224185 0.02132107 0.013577315 -0.0267813
0000c0 e3 d9 52 bc 14 32 b2 3c 33 d9 84 3c 77 e0 07 bd
       -0.012869331 0.021752395 0.01621685 -0.03317305
0000d0 db 56 1c bc 46 3e 30 3b d2 48 f9 bc f0 66 c1 3c
       -0.009542192 0.0026892587 -0.030430231 0.023608655
0000e0 eb 27 da ba 57 2c 11 bd 3c 4c 32 bb 2e 5e ab 3c
       -0.0016643977 -0.035442676 -0.0027206084 0.020918932
0000f0 7b db b9 3c 49 c1 c2 bc 25 73 3f bc 2a e9 29 bc
       0.022687664 -0.023773806 -0.011685167 -0.010370532
000100 56 a1 0b bc 78 2f 19 bd d4 81 a2 bc b1 17 56 bb
       -0.008522352 -0.037398785 -0.019837297 -0.003266793
000110 54 90 e5 b9 bc 35 9d bc f4 20 9e bc 03 f4 c8 3c
       -0.00043785817 -0.019190662 -0.019302823 0.024530416
000120 7d fa 1d bd 86 42 1f bd 7f 4c b1 3c 60 80 22 3c
       -0.038568962 -0.0388818 0.021642921 0.009918302
000130 10 6e cb bc f8 a7 3d bd 8c 74 8c bc 74 8b 75 bc
       -0.024832755 -0.046302766 -0.017145418 -0.0149868615
000140 1b c0 9c 3c 49 f0 02 bd de 25 5d 3c 1e 0a 4c bd
       0.019134572 -0.031967435 0.013497798 -0.049814336
000150 e9 63 bf 3c 38 c8 45 3b 22 b0 c0 bc 64 f4 c8 bc
       0.02336307 0.0030179154 -0.023521487 -0.024530597
000160 d5 90 1d bd 7e 7f df 3c 3d 3a 41 3c 17 3b 3c bc
       -0.0384682 0.027282473 0.01179367 -0.0114886975
000170 6b cd 13 bd 76 0f 92 bc 82 0a 80 ba ed a7 28 bd
       -0.036084574 -0.017829638 -0.0009768757 -0.04117577
000180 d6 bf 19 bd 00 61 7e 3c 17 50 0b bd 53 e2 93 3c
       -0.037536465 0.015526056 -0.034011927 0.018052256
000190 c9 9c 85 bc e8 bf fa bc 74 1f f9 bb ee 03 90 bb
       -0.016310113 -0.030609086 -0.0076026265 -0.0043949997
0001a0 a8 77 18 bd 3d 12 b6 3c 42 8e b2 bc de c2 75 bd
       -0.037223488 0.022225494 -0.02179635 -0.060000293
0001b0 d1 9b 09 3d b9 27 19 bb 6c 66 ce bb 6b 8b ed bc
       0.033595864 -0.0023369624 -0.0062988307 -0.028997144
0001c0 cf a3 2c 3c fc 2d 33 3c 70 6f 3d bd 30 b6 b8 bc
       0.010537102 0.0109362565 -0.046248853 -0.022547811
0001d0 e3 96 0a 3c f4 19 47 3c 7b 75 b3 bc 9d fc a3 bc
       0.008458826 0.012152184 -0.021906605 -0.020017916
0001e0 4f 58 0e 3d 05 db 74 3c ee 5c ad bc 35 05 a9 3b
       0.034752186 0.014944796 -0.021162476 0.0051580914
0001f0 49 8b 1b bd 4e 5f 5b 3c 71 fe 8b 3c c6 20 b0 3c
       -0.03797463 0.013389422 0.0170891 0.021500003

fc2.weight f4 [64, 128]
000000 c7 ed cc bd 6c 92 75 bd d7 79 17 3d 7e 3c d0 bc
       -0.1000629 -0.059954092 0.03698143 -0.02541947
000010 48 79 cf 3c 44 18 f9 bd 58 8f e3 ba ac f0 a5 3d
       0.025326386 -0.121628314 -0.0017361445 0.08102545
000020 e0 71 e8 bb ce 57 45 bc 81 18 b4 bc ec 29 5e bd
       -0.007093653 -0.01204486 -0.02198434 -0.0542392
000030 a7 d7 50 3d 91 61 4a bd aa 2a fc bc 01 50 81 3d
       0.050986912 -0.049409453 -0.030782063 0.06314088
000040 d8 f4 4a 3d ca e9 28 bd b2 17 3b 3b e8 0f be 3c
       0.049549907 -0.041238584 0.002854806 0.023200944
000050 12 bc a4 bd df e5 4a 3d 2d 30 41 3d 1a 27 26 3c
       -0.08043684 0.04953563 0.047165085 0.0101411585
000060 ba 5e 19 bc 9c 9b 36 bd 81 99 cd 3c b7 07 a3 3d
       -0.0093609635 -0.044581994 0.02509761 0.07960456
000070 23 a7 79 3d 43 3c 15 3b 98 c7 9c bd 44 3c 4e bc
       0.06095041 0.0022771514 -0.07655257 -0.012587611
000080 34 eb a6 bc bb d6 54 3c 55 72 ea bd 37 70 87 bd
       -0.020375825 0.012990649 -0.11447588 -0.066132
000090 cb 01 89 bd d4 65 b4 bd 20 78 c1 bb f5 df c7 bd
       -0.06689795 -0.08808485 -0.0059042126 -0.09759513
0000a0 d7 a8 97 bc 36 24 58 bc 61 a9 99 3d 73 7a c7 3b
       -0.018513126 -0.013192227 0.075030096 0.006087595
0000b0 fd c9 9c 3c 5d 3c 1d bc 6b 9f 5a bd f5 ce 4b bd
       0.019139284 -0.009596911 -0.05337469 -0.049757916
0000c0 65 47 89 bc 77 c7 a7 3c b8 bc fb ba f3 83 1d bc
       -0.016757676 0.020480854 -0.0019206023 -0.009613979
0000d0 f2 d0 6b bd 4e 2b 30 bd 84 1b 7d bd 59 62 41 bd
       -0.057572313 -0.04301005 -0.06179382 -0.047212932
0000e0 52 d7 35 bd fb 30 99 3c 11 cf b6 bd 0c b7 10 3d
       -0.0443948 0.018700114 -0.089262135 0.035330817
0000f0 64 a4 8f 3d 2f 04 d8 bc 42 28 31 bd 7a 85 05 3d
       0.07013777 -0.026369182 -0.043251283 0.032597996
000100 be ed 38 bc 9d 2e 06 3d 6f 51 76 bc ce 08 87 bd
       -0.011287151 0.032759298 -0.015034064 -0.06593476
000110 5b 03 56 3c 97 72 82 bd 08 42 d7 3c dc 65 17 bd
       0.013062323 -0.063695125 0.026276603 -0.036962375
000120 6f f7 79 3d 64 fa b6 3c 79 c3 9c bd a2 a3 bf bc
       0.061026987 0.022336192 -0.07654471 -0.023393456
000130 0e cc 35 3d a4 6e 31 3d 0e 98 8d bd 25 b7 fa 3c
       0.044384055 0.043318406 -0.06913768 0.030604908
000140 c1 b3 04 be 1f e6 13 3d db 70 ca bc 6b f6 29 3d
       -0.12959196 0.036108132 -0.024712017 0.041494768
000150 bb 92 3e bc 74 d7 0f 3d 10 cc 1c 3d a1 0c 9e bd
       -0.011631663 0.03511758 0.038280547 -0.077172525
000160 00 12 96 3d 4a aa 85 bd 1d 33 c4 bd 78 22 b0 bd
       0.07327652 -0.06526621 -0.095800616 -0.086003244
000170 22 eb 03 bd 51 4d 42 3c 5f 97 b9 bd 0c 30 21 3d
       -0.032206662 0.011859254 -0.09062075 0.03935246
000180 dd 65 ad 3b 8f c4 86 3c 04 9a 89 3d 9f f2 b2 ba
       0.005291684 0.016451148 0.06718829 -0.0013652629
000190 c8 31 f4 bd 29 23 80 bd 8f 9a d9 bd a4 61 80 3c
       -0.119235575 -0.06256706 -0.10625183 0.015671559
0001a0 6f 75 86 bd ab 8f f0 3b 67 b5 4a bc 31 05 32 3b
       -0.065653674 0.0073413453 -0.012372351 0.002716374
0001b0 72 bb 7d 3d 88 e6 ba bd d4 d8 df bd e2 c8 20 bd
       0.06194634 -0.091260016 -0.109300286 -0.039254077
0001c0 ec 3c 9d 3d 48 e8 77 3d 9d a1 9c bc 60 e1 bc bd
       0.076776356 0.060524255 -0.019120032 -0.09222674
0001d0 61 a9 2a 3d b5 1a 21 bc 7d e9 50 bc 5c 8d b9 bc
       0.04166544 -0.009833028 -0.01275098 -0.022650413
0001e0 9f c3 e8 bd 1e 97 4e 3d 24 4c 68 3c fd fb 04 bd
       -0.11365437 0.050437085 0.01417831 -0.032466877
0001f0 67 d5 a5 bd 71 a6 17 3d 5d 32 23 bd 5d 11 18 bd
       -0.08097344 0.037023965 -0.039842952 -0.037125934
000200 9d d1 8b 3d f3 d5 98 3d dc 41 16 be db 14 1a bd
       0.0682709 0.074626826 -0.14673561 -0.037617546
000210 b2 00 a1 3c 08 2d 1b be 41 fc 8e bd cb 74 99 3d
       0.019653652 -0.15153897 -0.06981707 0.074929796
000220 1d 4e 83 bd 34 03 1b 3e b6 74 82 bd 31 92 70 3d
       -0.06411383 0.1513794 -0.06369917 0.05873317
000230 86 ff a6 bd a7 6a ac 3d cd 86 04 3e 61 a6 57 3d
       -0.08154206 0.0841878 0.12942047 0.052648906
000240 6b 09 9f bc 07 57 b3 39 ae cc 51 bc a5 67 83 bc
       -0.01941367 0.0003420638 -0.012805147 -0.016040633
000250 90 69 36 bd 1e df 40 39 03 cb e6 bc 43 0c 8a 3e
       -0.044534266 0.00018393665 -0.028172975 0.2696248
000260 88 2a 88 3d 55 44 de 3c 11 46 63 bb db f8 95 bd
       0.06648737 0.027132193 -0.0034679214 -0.07322856
000270 68 50 74 bc 5a 12 50 bc a4 fe 15 bd cb 98 08 3e
       -0.0149117485 -0.012699688 -0.036619797 0.13339536
000280 ba bc e0 bd b9 cc cb 3c 36 f0 0f 3d 0f 4a 7b bc
       -0.10973497 0.024877893 0.035141192 -0.015337481
000290 fd e0 1a 3d b8 18 9f bd 8e 87 45 be 34 ed a5 3c
       0.03781222 -0.077683866 -0.19289991 0.020254709
0002a0 22 59 47 bd 46 b5 31 3d f2 41 82 bd 68 af 09 bd
       -0.048668988 0.043385766 -0.06360234 -0.033614546
0002b0 0d 6a 92 3d 75 e4 cb 3c dc b9 4c bb 0d 07 c5 3d
       0.07149134 0.02488921 -0.003123871 0.096204855
0002c0 7f e7 9d bd 57 a6 35 3e fa 27 69 bd c0 f7 e0 bb
       -0.0771017 0.17739235 -0.05692289 -0.0068654716
0002d0 59 72 91 3d 2c 50 71 3d f1 07 93 3d 19 83 95 3d
       0.07101888 0.05891435 0.07179249 0.073003955
0002e0 00 26 c6 bc 00 bc 22 3e 46 2d 25 3e dd 72 15 bd
       -0.024188042 0.15892029 0.16130552 -0.036486495
0002f0 eb 24 4d 3d 08 cc 4e 3d ec 43 55 3d 67 50 24 bd
       0.050084036 0.050487548 0.05206673 -0.04011574
000300 d9 48 d7 3d 08 f9 85 be 2d 60 d6 bd ee ca 76 bd
       0.105119415 -0.26166558 -0.10467563 -0.060252123
000310 e8 f7 06 be 45 9b a7 3e c5 45 7f 3d 7e 7b 00 3c
       -0.13180506 0.3273565 0.062322397 0.007841943
000320 29 4e af bd c0 f4 8d 3d 10 12 ba bd c8 35 e0 bc
       -0.0855983 0.06931448 -0.090854764 -0.027369395
000330 8b e0 67 bc 07 0b 73 be 99 eb fa 3d 92 f8 2f bd
       -0.014152656 -0.23734675 0.12251968 -0.042961664
000340 a2 d9 95 bd cd ad a7 3d 05 47 60 bd 97 fc 16 bd
       -0.07316901 0.08187447 -0.05475523 -0.036861982
000350 d1 7d 02 3d d0 12 55 ba 68 3b e0 3d 7b a2 37 bd
       0.03185827 -0.00081281085 0.10948831 -0.044832688
000360 1c 6e a1 bd ad 8d 8d bc 5a 4d 04 3e 8b 4c e6 3c
       -0.0788233 -0.01727947 0.12920132 0.02811267
000370 d7 d1 ef b9 5b f9 32 3e 93 fd a2 3e 61 a9 10 bd
       -0.00045741975 0.17477934 0.31834087 -0.035317782
000380 d3 57 57 3d be 07 62 bb e9 d1 5b 3d 75 7b 76 bd
       0.05257399 -0.0034489478 0.053666983 -0.06017633
000390 68 cf 19 be ff 8d b8 bc d9 fe c4 3d 1b e4 86 bd
       -0.15020525 -0.022528647 0.09618921 -0.065864764
0003a0 b6 d6 49 bd 60 bf 9a bd 24 07 ae be b4 9f c0 3d
       -0.04927703 -0.07556033 -0.33989823 0.09405461
0003b0 45 77 00 bd 1b a1 b8 bc 36 3e aa 3d 2b 2c 9c bd
       -0.031363744 -0.022537759 0.08312647 -0.07625612
0003c0 cc 4f 48 3d 77 9b c0 3c be 45 03 be 8e 18 6f bd
       0.048904225 0.023511631 -0.12819573 -0.058373027
0003d0 e8 8f d5 3e a4 63 c2 bc 13 a7 22 3d 2f e4 61 be
       0.41711354 -0.023729153 0.039710116 -0.22059701
0003e0 1f 9d 54 3d e5 e4 4a bd f7 59 da bd f1 36 15 3e
       0.051907655 -0.049534697 -0.10661691 0.1457174
0003f0 c1 4e 5f bb 47 f9 74 3b c8 d9 93 bc d6 08 5c bd
       -0.003407404 0.0037380026 -0.018048182 -0.053719364

fc2.bias f4 [64]
000000 a0 da 32 bd 17 f1 df bd d1 fe c8 3d 74 94 52 3d
       -0.04366553 -0.10934656 0.09814227 0.051411107
000010 87 c8 61 3d 87 46 61 bd cb 4e 1f bd f2 2b b6 bd
       0.05512288 -0.0549989 -0.038893502 -0.08895101
000020 b8 3f b0 bd af eb 78 3c 54 2c 80 3e 22 86 fd 3c
       -0.086059034 0.01519291 0.2503382 0.030947749
000030 86 39 31 bc cb 61 23 3d 38 a2 67 3d 86 95 d5 bd
       -0.010816937 0.039888185 0.05655119 -0.1042891
000040 9b 51 ea 3b f2 03 c9 bc 8a 5c 69 3a 31 22 a3 bc
       0.0071508414 -0.024538014 0.0008902034 -0.019913765
000050 37 80 bc bc 70 4f 93 3d 61 1d c9 bd 80 55 c0 3c
       -0.023010356 0.07192886 -0.09820057 0.02347827
000060 41 6d 8c 3d 3b 12 b3 bd 4c ae 10 bd 7e d2 91 bd
       0.06856776 -0.087437116 -0.035322472 -0.07120226
000070 59 5a 7b bd 5f 4e eb 3d 6f 88 dc bd 06 4d 42 bd
       -0.06136546 0.114895575 -0.1076821 -0.047436737
000080 d1 1b 3d 3e 37 2e ed bd 4b c6 97 3d 53 f0 b9 bd
       0.18467642 -0.115810804 0.07410868 -0.09079041
000090 c8 45 0f be a7 e6 c4 bd 40 e5 aa 3d 8c 18 da bd
       -0.13991463 -0.09614306 0.08344507 -0.10649213
0000a0 b8 33 a4 3d 49 23 36 bd d6 20 c7 bd ce 28 a7 3c
       0.08017677 -0.044467244 -0.0972306 0.0204052
0000b0 1b 6d bf bd e2 7c 73 3d 9b 9e 11 3e dc 64 c6 3d
       -0.09346982 0.05944527 0.1422066 0.09687206
0000c0 0f a5 05 be 67 1c ec 3c f5 71 74 bd 4e 66 c2 bb
       -0.13051246 0.028822137 -0.05967899 -0.005932606
0000d0 b7 6e ef 3c d5 6c 9e 3d 07 e1 b8 bd 61 95 ff 3c
       0.029227598 0.07735602 -0.090272956 0.03119916
0000e0 6e 5f 1b bd fd 9c c7 3d 58 d8 17 be 39 99 88 bc
       -0.037932806 0.0974674 -0.14828622 -0.016674625
0000f0 72 d6 3c 3e e7 85 c5 bc 57 9e d2 bd a2 c7 02 3c
       0.1844118 -0.024111701 -0.10284107 0.0079821665

fc3.weight f4 [10, 64]
000000 df 4f 16 bd 97 18 d1 be d1 bf e7 be 90 2f 37 be
       -0.036697265 -0.40839073 -0.45263532 -0.17889237
000010 3b a7 9c bc bc 67 4d 3d 77 24 73 3e 6c 2d a6 be
       -0.01912271 0.050147757 0.23744379 -0.3245653
000020 2d 16 03 be 8a ae 0b bd bc 50 dd be 99 54 2e 3d
       -0.12801428 -0.034102 -0.43225658 0.042561147
000030 28 c5 a1 3c aa 64 99 bd 4f 45 be 3d 32 3a b7 3d
       0.019747332 -0.07489903 0.09290563 0.08946647
000040 e1 94 1f 3e cd 38 1d 3e e0 cd 4e be a4 eb 1e 3e
       0.15584137 0.15353699 -0.20195723 0.15519577
000050 3a 33 10 be 1e df d3 bb 91 0a 22 be 69 8b e6 3d
       -0.14082041 -0.0064658066 -0.15824343 0.11257059
000060 25 b0 a5 be 11 a7 64 3d d1 7f 2c be 2a 20 4d 3b
       -0.3236095 0.05582339 -0.16845633 0.003129969
000070 95 0c 82 be 24 be e3 bd a6 62 4e 3e eb 5b a9 be
       -0.25400224 -0.11120251 0.20154819 -0.3307794
000080 4a 43 a8 3c 11 60 19 be 2a 50 1e 3e f1 3a 14 be
       0.020539898 -0.14978053 0.15460268 -0.1447561
000090 2c f9 14 3d cb fb 7f 3d 27 49 1b bd 99 80 3e 3d
       0.03637044 0.062495988 -0.03791156 0.04650936
0000a0 47 00 9c 3d 17 9b 20 be e6 fe 08 be a6 d9 93 bd
       0.076172404 -0.15684162 -0.13378486 -0.072192475
0000b0 12 86 b9 bd b8 61 53 be 9f c1 93 be 34 d3 7a 3d
       -0.09058775 -0.20642745 -0.2885866 0.061236575
0000c0 06 1d 51 be 75 ec b3 bc 09 52 31 3d ba 33 63 be
       -0.20421228 -0.021963337 0.043291125 -0.22187701
0000d0 4a 84 08 bd 87 1d 46 3e 49 bc 25 3e dd 86 0c 3d
       -0.033329286 0.19347201 0.16185106 0.034308303
0000e0 7a aa b8 3d 2b 25 dc bd 17 8f 64 3e 3f 97 04 3e
       0.09016891 -0.10749277 0.2232021 0.12948321
0000f0 8e 11 0e 3e b2 8e b5 ba 5a 07 60 3d 10 5a c4 bc
       0.13873884 -0.0013851731 0.05469451 -0.023968726
000100 ee 85 40 3b a8 60 a6 3e 42 b8 fb 3d d0 f2 33 be
       0.0029376703 0.32495618 0.12291004 -0.17573094
000110 32 d0 c9 3d 18 a9 b8 3e a9 af 68 3e 12 0c db 3d
       0.09854163 0.36066508 0.22723259 0.106956616
000120 e1 c3 8e 3d ed 49 1d 3e 98 ac 70 bd 4b ee 94 bd
       0.06970955 0.15360232 -0.05875835 -0.07272013
000130 01 97 a7 bd e7 fb 2d bd b3 4b 98 be 61 8a 8f be
       -0.081830986 -0.04247656 -0.29745254 -0.28035262
000140 a1 86 ec 3d 6e 71 18 be a8 08 df 3c de 91 c7 3c
       0.11549116 -0.1488702 0.027225807 0.024361547
000150 61 a4 0b 3d 89 23 6a be 42 89 b7 3d 6b f3 ec bd
       0.03409231 -0.22865118 0.08961727 -0.11569866
000160 0d 60 18 bd a1 63 92 be 4b 2e 44 be b9 da ee 3d
       -0.037200976 -0.28591636 -0.19158284 0.11662812
000170 82 13 16 3e c8 66 a4 be 29 59 43 3e 4e 7d ed 3d
       0.14655879 -0.32109666 0.1907698 0.115961656
000180 8a 10 c9 be 32 1c 89 3e b6 d7 e1 bc 59 78 08 bd
       -0.3927043 0.26779324 -0.02756868 -0.033317897
000190 3e 91 02 be da ac ea be b1 76 d0 3d 84 94 bc bd
       -0.12750718 -0.45835 0.101788886 -0.092080146
0001a0 cc be 61 be e2 22 ba be 57 a2 9d 3d 39 ac 90 3d
       -0.2204544 -0.36354738 0.076969795 0.07064099
0001b0 53 64 46 bd f4 54 42 3e 50 51 6c 3c bc 65 7f bc
       -0.04843552 0.1897772 0.014423683 -0.01558822
0001c0 4d 42 e0 bd 8b fd c2 3c 46 bc 07 be 89 8f a3 3d
       -0.10950146 0.02380254 -0.13255414 0.079863615
0001d0 0f 88 5b 3e 54 cc d2 3c 08 87 08 3e 06 20 d1 bd
       0.21438621 0.025732197 0.1333276 -0.10211186
0001e0 a7 55 be be d5 b0 98 bd 58 98 9c bd bb 07 6f 3d
       -0.37174723 -0.07455603 -0.07646245 0.05835698
0001f0 19 30 be be 73 e7 0d be e2 a6 24 be cd ea b3 bc
       -0.3714607 -0.13857822 -0.16079286 -0.021962548
000200 e6 a5 c7 bd f2 72 36 bc a6 61 4d bd 5d f1 6f be
       -0.097484395 -0.011135804 -0.050141953 -0.23431917
000210 b0 0b 38 3e 4d aa 36 bc 4f 1c cf 3c 3c e1 15 be
       0.17973208 -0.011149001 0.025282053 -0.14636701
000220 f1 59 60 3e fb 1c 7b be ec eb 84 be 61 3e db bc
       0.2190931 -0.24522774 -0.25961244 -0.026763143
000230 2c 88 07 be 9c 04 cc 3d 1b 5d cc bd 9c b1 68 be
       -0.13235539 0.09961817 -0.09978696 -0.22724003
000240 b8 88 bc 3d af 14 08 3e 24 ea 0b 3e ca 53 3e be
       0.092057645 0.1328914 0.13663536 -0.1858665
000250 37 95 cf 3c 94 95 81 be aa 02 17 3e 50 3b 19 3e
       0.025339706 -0.25309432 0.1474711 0.14964032
000260 fe c5 26 3d 85 7d ab be 78 21 c0 be a1 92 33 be
       0.040716164 -0.334942 -0.37525535 -0.17536403
000270 40 60 31 be f0 8b 90 3d 4e ef 9a bc 26 19 5d be
       -0.17321873 0.07057941 -0.018912937 -0.21591625
000280 29 50 68 b9 8a 4d aa be 50 74 99 be e2 b4 c0 be
       -0.00022155106 -0.33262283 -0.29971552 -0.37638003
000290 5b ee d0 3c 13 b1 4a 3d 40 85 e7 3c a7 9d 85 be
       0.025504282 0.049485277 0.02826178 -0.26096842
0002a0 fd 6d 17 be 0a 8b ab be 49 44 9c 3d fd 95 5b 3d
       -0.14788051 -0.33504516 0.07630212 0.053609837
0002b0 ae e7 57 bd 7b 9f 9f 3e 44 3f 42 3d e9 45 b3 ba
       -0.05271118 0.3117636 0.047423616 -0.0013677451
0002c0 1b e4 2a 3e 13 2a 25 bd 80 68 20 3e ba b1 3a 3e
       0.16688578 -0.04032333 0.15664864 0.1823186
0002d0 40 72 de be f5 09 2b be 77 1e 5a 3d 39 c9 7e 3d
       -0.4344654 -0.16703017 0.05325171 0.06220362
0002e0 58 52 4c 3e 93 f4 7c 3d 8a 4a 02 3e 9b 20 cb 3d
       0.19953287 0.06175668 0.12723747 0.099183284
0002f0 b0 1b 43 3c 9f df 90 3d 84 4e 3d 3e 06 cb 03 be
       0.011908457 0.07073902 0.18486983 -0.12870416
000300 a2 ab bd bd 4b 23 03 3d 44 55 c6 3d fd 04 91 3d
       -0.09261252 0.03201608 0.09684232 0.070810296
000310 38 14 ad 3d 76 4f 87 be d3 a5 2a be fe eb fd 3d
       0.08451122 -0.2642781 -0.1666482 0.123985276
000320 1a 33 ff 3d c6 c7 0e 3e d6 2b e2 bd 1b 2d be 3c
       0.12460919 0.13943395 -0.11043517 0.023214867
000330 72 e9 85 3d 80 db 58 bc ae d6 99 be 5e 00 14 3e
       0.06538667 -0.013235927 -0.300466 0.14453265
000340 6d a0 f4 3c a9 ec 94 3d 26 36 b6 3d 92 91 8d be
       0.029861653 0.07271702 0.08897047 -0.27650124
000350 da 68 b4 bb 1d 51 a1 bc 9a 7e 4a bd f6 5d 86 be
       -0.0055056633 -0.019691998 -0.049437143 -0.26243562
000360 78 0b a3 be fc f6 60 3d 15 7c 11 3e 4b eb c1 bd
       -0.31844687 0.054923043 0.1420749 -0.09468707
000370 0e 11 9d 3d ff c4 ac 3b 4e ae f7 bd c8 2b c4 be
       0.076692685 0.005272507 -0.12093793 -0.38314652
000380 8e 95 a0 bc 75 39 a4 be 7a e8 88 be de 68 1c be
       -0.019602563 -0.32075086 -0.26739866 -0.15274379
000390 df 90 05 3e aa b1 cb 3a 92 50 0a 3e ef 00 81 be
       0.13043545 0.0015540619 0.13507298 -0.25196025
0003a0 d6 3f b9 3c 55 c6 53 3d 7e fd 04 be be 74 3b 3e
       0.022613447 0.051702816 -0.12987325 0.18306252
0003b0 72 af 97 3d b8 a1 c2 be a1 46 87 be 4f 37 a5 be
       0.074065104 -0.38014007 -0.26421073 -0.3226876
0003c0 a6 b5 55 3d 9d 14 ee 3b 3a 78 39 3e e0 37 8b 3d
       0.052175187 0.007265641 0.18112269 0.06797767
0003d0 72 67 e3 3d 8f c9 56 be 10 3b 9d be 21 75 40 bd
       0.11103715 -0.20975326 -0.30709124 -0.046986703
0003e0 ef 69 14 bb cf db d8 3d c5 2e b4 bd b1 92 cb bd
       -0.002264615 0.105888 -0.08797983 -0.099400885
0003f0 fa 8a 42 3d a2 1f d9 3d e1 05 4d 3d 75 61 b9 3d
       0.04749582 0.106017366 0.050054435 0.090517916

fc3.bias f4 [10]
000000 30 80 61 be 5a 45 76 bc 22 20 0d be fc c9 5e bd
       -0.22021556 -0.015031183 -0.13781789 -0.054391846
000010 23 0f 0c 3e ac 39 bd bc 1f e0 e2 bd 3f ca 0f be
       0.13677649 -0.02309879 -0.11077904 -0.14041995
000020 17 a8 96 3e 92 b0 10 3e
       0.29425117 0.14129856
